…
     x = x.view(x.size()[0], -1) # viewå‡½æ•°å°†æ± åŒ–åçš„[in_chanel,6,5,5]å››ç»´å¼ é‡x,å˜å½¢æˆæ ¹æ®in_chanelå¤§å°çš„[x.size()[0],-1]äºŒç»´å½¢å¼ï¼Œå…¶ä¸­-1è¡¨ç¤ºè‡ªé€‚åº”ã€‚æ€»ç‰¹å¾æ•°å¹¶ä¸æ”¹å˜ï¼Œä¸ºæ¥ä¸‹æ¥çš„å…¨è¿æ¥ä½œå‡†å¤‡ã€‚        x = F.relu(self.fc1(x)) # è¾“å…¥xç»è¿‡å…¨è¿æ¥fc1åï¼Œç»è¿‡æ¿€æ´»å‡½æ•°ReLUæ›´æ–°åˆ°xã€‚        x = F.relu(self.fc2(x)) # è¾“å…¥xç»è¿‡å…¨è¿æ¥fc2åï¼Œç»è¿‡æ¿€æ´»å‡½æ•°ReLUæ›´æ–°åˆ°xã€‚        x = self.fc3(x) # è¾“å…¥xç»è¿‡å…¨è¿æ¥fc3åï¼Œæ›´æ–°åˆ°xã€‚        return x # è¿”å›å€¼xã€‚net = Net() # åˆ›å»ºä¸€ä¸ªNetçš„å®ä¾‹netã€‚print(net)&quot;&quot;&quot;Out:Net(  (conv1): Conv2d(1, 6, kernel_size=(5, 5), stride=(1, 1))  (conv2): Conv2d(6, 16, kernel_size=(5, 5), stride=(1, 1))  (fc1): Linear(in_features=400, out_features=120, bias=True)  (fc2): Linear(in_features=120, out_features=84, bias=True)  (fc3): Linear(in_features=84, out_features=10, bias=True))&quot;&quot;&quot;</code></pre><p>ç½‘ç»œçš„å¯å­¦ä¹ å‚æ•°é€šè¿‡<code>net.parameters()</code>è¿”å›ï¼š</p><pre><code class="lang-python">params = list(net.parameters())print(len(params))&quot;&quot;&quot;Out:10&quot;&quot;&quot;</code></pre><p><code>net.named_parameters</code>å¯åŒæ—¶è¿”å›å¯å­¦ä¹ çš„å‚æ•°åŠåç§°ï¼š</p><pre><code class="lang-python">for name,p
…
f use_cuda:     net = net.cuda()print(net)# æŸå¤±å‡½æ•°å’Œä¼˜åŒ–å™¨ã€‚from torch import optimcriterion = nn.CrossEntropyLoss() # äº¤å‰ç†µæŸå¤±å‡½æ•°optimizer = optim.SGD(net.parameters(), lr=0.001, momentum=0.9) # éšæœºæ¢¯åº¦ä¸‹é™ä¼˜åŒ–å™¨ã€‚        ############ ä¼˜åŒ–tricksä¹‹åŠ¨é‡æ³•å‚æ•°momentum ############# ä¸€èˆ¬ï¼Œç¥ç»ç½‘ç»œåœ¨æ›´æ–°æƒå€¼æ—¶ï¼Œé‡‡ç”¨å…¬å¼ä¸ºï¼š w = w - learning_rate * dw# å¼•å…¥momentumåï¼Œé‡‡ç”¨å…¬å¼ä¸ºï¼š w = momentum * w - learning_rate * dw# å…¶åœ¨å¹³å¦çš„åŒºåŸŸæ”¶æ•›ä¼šåŠ å¿«ã€‚######################################################&quot;&quot;&quot;Out:Net(  (conv1): Conv2d(3, 6, kernel_size=(5, 5), stride=(1, 1))  (conv2): Conv2d(6, 16, kernel_size=(5, 5), stride=(1, 1))  (fc1): Linear(in_features=400, out_features=120, bias=True)  (fc2): Linear(in_features=120, out_features=84, bias=True)  (fc3): Linear(in_features=84, out_features=10, bias=True))&quot;&quot;&quot;</code></pre><h2 id="3-3-è®­ç»ƒç½‘ç»œ"><a href="#3-3-è®­ç»ƒç½‘ç»œ" class="headerlink" title="3.3 è®­ç»ƒç½‘ç»œ"></a>3.3 è®­ç»ƒç½‘ç»œ</h2><p>ä½¿ç”¨å¤„ç†å¥½çš„æ•°æ®åˆ†æ‰¹è®­ç»ƒï¼š</p><pre><code class="lang-python">torch.set_num_threads(8) # è·å¾—ç”¨äºå¹¶è¡ŒåŒ–CPUæ“ä½œçš„OpenMPçº¿ç¨‹æ•°for epoch in range(2):  #è®­ç»ƒä¸¤ä¸ªepochã€‚å³ä¸¤æ¬¡éå
…
