…
 x): # 定义前向传播。 x = F.max_pool2d(F.relu(self.conv1(x)), (2, 2)) # 输入x经过卷积conv1之后，经过激活函数ReLU，使用2x2的窗口进行最大池化Max_pool2d，然后更新到x。 x = F.max_pool2d(F.relu(self.conv2(x)), 2) # 输入x经过卷积conv2之后，经过激活函数ReLU，使用2*2的窗口进行最大池化Max_pool2d,然后更新到x。 x = x.view(x.size()[0], -1) # view函数将池化后的[in_chanel,6,5,5]四维张量x,变形成根据in_chanel大小的[x.size()[0],-1]二维形式，其中-1表示自适应。总特征数并不改变，为接下来的全连接作准备。 x = F.relu(self.fc1(x)) # 输入x经过全连接fc1后，经过激活函数ReLU更新到x。 x = F.relu(self.fc2(x)) # 输入x经过全连接fc2后，经过激活函数ReLU更新到x。 x = self.fc3(x) # 输入x经过全连接fc3后，更新到x。 return x # 返回值x。 net = Net() # 创建一个Net的实例net。 print(net) &quot;&quot;&quot;Out: Net( (conv1): Conv2d(1, 6, kernel_size=(5, 5), stride=(1, 1)) (conv2): Conv2d(6, 16, kernel_size=(5, 5), stride=(1, 1)) (fc1): Linear(in_features=400, out_features=120, bias=True) (fc2): Linear(in_features=120, out_features=84, bias=True) (fc3): Linear(in_features=84, out_features=10, bias=True) ) &quot;&quot;&quot; 网络的可学习参数通过net.parameters()返回： params = list(net.parameters()) print(len(params)) &quot;&quot;&quot;Out: 10 &quot;&quot;&quot; net.named_parameters可同时返回可学习的参数及名称： for name,parameters in net.named_parameters(): # 可将其看作字典 print(name,&#39;:&#39;,parameters.size()) &quot;&quot;&quot;Out: conv1.weight : torch.Size([6, 1, 5, 5]) conv1.bias 
…
view(x.size()[0], -1) x = F.relu(self.fc1(x)) x = F.relu(self.fc2(x)) x = self.fc3(x) return x net = Net() use_cuda = False # 控制全局是否使用GPU。 if use_cuda: net = net.cuda() print(net) # 损失函数和优化器。 from torch import optim criterion = nn.CrossEntropyLoss() # 交叉熵损失函数 optimizer = optim.SGD(net.parameters(), lr=0.001, momentum=0.9) # 随机梯度下降优化器。 ############ 优化tricks之动量法参数momentum ############ # 一般，神经网络在更新权值时，采用公式为： w = w - learning_rate * dw # 引入momentum后，采用公式为： w = momentum * w - learning_rate * dw # 其在平坦的区域收敛会加快。 ###################################################### &quot;&quot;&quot;Out: Net( (conv1): Conv2d(3, 6, kernel_size=(5, 5), stride=(1, 1)) (conv2): Conv2d(6, 16, kernel_size=(5, 5), stride=(1, 1)) (fc1): Linear(in_features=400, out_features=120, bias=True) (fc2): Linear(in_features=120, out_features=84, bias=True) (fc3): Linear(in_features=84, out_features=10, bias=True) ) &quot;&quot;&quot; 3.3 训练网络使用处理好的数据分批训练： torch.set_num_threads(8) # 获得用于并行化CPU操作的OpenMP线程数 for epoch in range(2): #训练两个epoch。即两次遍历训练集。 running_loss = 0.0 for i, data in enumerate(trainloader, 0): # 输入数据 inputs, labels = data # 数据加载器生成的data为一个list，其包含两个元素，第一个是inputs值，第二个是labels值 if use_cuda: # 是否使用GPU。 inputs, labels = inputs.cuda(), labels.cuda() # 梯度清
…
